saved_models/autoencoder_model.pth (torch, 44737 bytes, 12 tensors)

encoder.trend_learner.gating_weights f4 [1, 32, 8]
00000000: df5d 193f 11c2 343e 6014 523f 73c2 123e
00000010: 919a b2bf 3bae 82bf cdd6 123f 4ec1 f23e
00000020: e87a 293e ad31 f33c ba29 a33e fc12 cc3e
00000030: 6f67 5c3f 51f5 02be dbcb 2abf b54b f23f
00000040: 769c f5be fc53 f4be 0a0d 43be 29be bd3f
00000050: 88a2 9c3f 62e9 06bf a1e7 9abe 969d a6bd
00000060: ebac 913c 11fe 423e 6b2c 40bf 1d6c 67bc
00000070: 67d3 ef3f 533e 80bf d128 8ebe faf2 3abf
00000080: 88a8 b3bf 349e 25bf fd3e 653f 08ae 513f
00000090: 63dc a7bf 1bc4 02bf bdb7 12bf 5b7b 99bf
000000a0: 7ae8 a7bd be89 d33e 5fae 51bf 074d fb3e
000000b0: e37b be3f f88a 24bf b259 403f ebe0 a63f
000000c0: 19fe dabe 1708 e93f d356 85be 7843 3e3f
000000d0: 0108 f3bf 166d 593f 481d 45bf 7a12 853f
000000e0: 0156 013e 102b c63e bc73 3d3f 393e c83e
000000f0: 2bbb f53f 4a19 ea3e 11d5 0f3f 82ef 9e3f
00000100: ee79 d53d 9866 d8bd d43a 223f d783 5dbe
00000110: 53c8 973f 36f1 683e 0d1e 75bf 27ba f13f
00000120: c631 08bf ea19 f6be b3ba 92be c390 de3e
00000130: 7707 723f 9ef3 16c0 7fca ad3e aef8 e83f
00000140: b36c cabe bfa5 0dbf a15f ec3f 9691 babf
00000150: 8dec cdbe 2d2e a4bf 3868 89bf 59ae a33f
00000160: f14f 67be 2cb4 19bf 3029 4dc0 1fec 5a3f
00000170: 24c0 9e3f 6178 e5be 5895 a2bf 5202 d7bf
00000180: b2d3 963e d42d cb3f c318 4cbf 465f 763e
00000190: 5c57 ccbe 799b babb 53f6 51bf c22d 8e3e
000001a0: bc56 22bf 8553 01bf 4e38 6abf 5a15 9ebe
000001b0: 78c2 3c3f dc10 58be f08a 8bbf a730 ba3f
000001c0: 54d2 dabe 4186 4f3f 5534 94bf 0f98 0ac0
000001d0: 891b adbe 7712 753f c9fc bf3f 5c2c 82bd
000001e0: 5c91 22be 1e7e a43f 980a a23f 2183 6dbf
000001f0: d6cd 8dbf 36e3 e53f 5c88 9abf 3def 4dbf
00000200: c979 4fbf 9d0d 1140 f5fa 1f3f b195 87bf
00000210: 5b23 f03d 38ab 8e3f 9684 c8be 78c9 debf
00000220: 3766 803c 6ae6 f13e 17ff 6b3f 3222 113f
00000230: 9f14 8dbf 7755 32bf 7406 1e40 8e3b 93bf
00000240: 6a39 abbf 5086 413e 4243 ca3f 2d29 913e
00000250: b7c7 e9bf 9078 823f b32b 00bf fbd8 d6be
00000260: 6e3b cbbe 3c23 053f 39a6 73bf 860a 3abf
00000270: 1ca0 e3bf ea33 0a3f d9d3 25bf e465 bdbd
00000280: 63ac 25bf 9e16 21c0 6e86 453f 8e33 11bf
00000290: 97bc 823f aabe 353f 6fc8 993f 6602 7bbf
000002a0: 525c 2d3f 75d8 50bf b80e 46bf dcbd 7bbe
000002b0: afb3 5b3f fc6c debf 3b2e 593f 387d d9bf
000002c0: 0676 763f c363 1740 a9a4 11bf 1b9e ccbf
000002d0: 6300 7f3f d0d2 e2be 56af 83bf 8353 7d3c
000002e0: fa4c b3bf 2048 0ebf 81e4 f8be fad7 7bbf
000002f0: 0e3c d63e b1a1 27bf 812d 2dbf 710b 3ebf
00000300: ce61 2abf 336b 343f 3595 4cbf fd22 af3e
00000310: 3e28 d93e 3501 723d 2fdb 14c0 f490 f43e
00000320: e704 48bf 530f 813f 5f8b 573f 208b fabd
00000330: f6d8 81bf afaa 0440 8288 163f fd5c bebf
00000340: 957b 09be 16b2 0b3f 13b3 09bf 4037 db3f
00000350: 626f dc3f b061 0abf a96d ce3e 9377 593f
00000360: 80b0 18bf 1348 ddbf 288b 43bf 3f07 31bf
00000370: d2ea 67bf 8561 dd3e cbaf bbbe e6fe 60bd
00000380: 7433 0abf 2ab8 86bf 16dc 5f3e a843 9f3f
00000390: 7bed 083d f687 8cbe 4441 1940 7c7e bdbf
000003a0: 4401 913f e5f1 8cbf a898 bd3f 49d7 4cbf
000003b0: a3ad 91bd 6575 b8bf bd0c 6dbf 4ff2 9e3f
000003c0: 04d1 0240 2cde 30bf f45a dfbf 690a 42bf
000003d0: 486d 34bf 7054 7fbf 7d77 49be 7ff6 3d3f
000003e0: 5501 a6bf f4cc cd3e 453e 84bf a278 a5bd
000003f0: c61f f2be 33cc 8c3f fa2a 8f3f 32fb 7ebf
0.5990886 0.17652155 0.8206234 0.14331989 -1.395342 -1.0209421 0.5735901 0.47413105
0.16550791 0.029686773 0.31867772 0.39858234 0.8609533 -0.12788893 -0.6671731 1.8929354
-0.47970933 -0.47720325 -0.19047943 1.4823657 1.2237101 -0.52699864 -0.30254844 -0.08135526
0.017782649 0.19042231 -0.75067776 -0.014124897 1.873639 -1.001902 -0.27765515 -0.73027
-1.4035807 -0.64694524 0.8954924 0.81906176 -1.3114132 -0.51080483 -0.5731161 -1.199077
-0.08198638 0.41316026 -0.81906694 0.49082205 1.4881557 -0.6427455 0.75136864 1.303739
-0.42771986 1.8205594 -0.26042804 0.743217 -1.8986818 0.84932077 -0.76997805 1.0396264
0.12630464 0.3870473 0.7400472 0.39109972 1.9197744 0.4572242 0.5618449 1.2416842
0.10423647 -0.10566443 0.63371015 -0.21632324 1.1858009 0.22748265 -0.9574898 1.8884934
-0.5320095 -0.48066646 -0.28658065 0.4346982 0.9454264 -2.3586192 0.33943555 1.8200891
-0.39536056 -0.55331033 1.8466684 -1.4575679 -0.40219536 -1.2826592 -1.073493 1.2787582
-0.22589089 -0.60040545 -3.205639 0.8551654 1.2402387 -0.44818404 -1.2701826 -1.6797583
0.29458386 1.5873361 -0.79725283 0.24059781 -0.399104 -0.0056948033 -0.82016486 0.27769285
-0.63413596 -0.50518066 -0.91492164 -0.30875665 0.73734236 -0.21100181 -1.0901775 1.4546098
-0.42738593 0.8106423 -1.157847 -2.165531 -0.3381007 0.957313 1.4999019 -0.06356117
-0.15875763 1.2850988 1.2659483 -0.9277821 -1.1078441 1.7959964 -1.2072864 -0.80443174
-0.81045204 2.266456 0.62492305 -1.0592557 0.117254935 1.1146002 -0.39163655 -1.7405233
0.01567374 0.47246104 0.9218611 0.566928 -1.1021918 -0.6966166 2.4691439 -1.150255
-1.3376896 0.18898892 1.5801775 0.28351727 -1.8264073 1.0193043 -0.5006668 -0.41962418
-0.3969378 0.5200689 -0.9517551 -0.7267231 -1.7783237 0.53985465 -0.6477638 -0.0924795
-0.64716166 -2.5170054 0.7715825 -0.5671929 1.0213803 0.70994055 1.2014292 -0.98050535
0.67718995 -0.8158029 -0.7736621 -0.24584144 0.8582105 -1.7377009 0.8483617 -1.6991339
0.9627384 2.365464 -0.56891876 -1.598575 0.99609965 -0.44301462 -1.0287883 0.015461805
-1.4007866 -0.55578804 -0.48611835 -0.9837643 0.41842693 -0.65481097 -0.6764756 -0.7423621
-0.6655549 0.70476073 -0.7991517 0.3420638 0.42413515 0.059083182 -2.325878 0.4776684
-0.7813248 1.0082802 0.8419704 -0.12233567 -1.0144336 2.0729177 0.58802044 -1.4872128
-0.13426049 0.5456861 -0.5378887 1.7126236 1.7221491 -0.5405531 0.4031804 0.8494808
-0.5964432 -1.728762 -0.7638421 -0.6915168 -0.9059268 0.43238464 -0.36657557 -0.05493059
-0.5398476 -1.0524952 0.218613 1.2442522 0.033429604 -0.2744748 2.3946085 -1.4804225
1.1328511 -1.101132 1.4812212 -0.80016 -0.07113197 -1.4410826 -0.9259756 1.2417697
2.0440073 -0.6908901 -1.7449632 -0.75797135 -0.7047925 -0.99738216 -0.19674487 0.7420425
-1.2969157 0.4019543 -1.0331503 -0.080796495 -0.47289866 1.0999817 1.118499 -0.99602044

encoder.trend_learner.experts.expert_coeffs f4 [8, 13]
00000000: 8bd3 cd3e 5d31 c43e 7006 333c d92b 193f
00000010: 60bd 113f 1a91 da3e 8adb 0cbe cd93 10be
00000020: ca90 1dbc 8435 b83d d308 b43e bb62 bdbe
00000030: 4645 d23e 84af d03d 33d2 d5bd ae0f 2ebe
00000040: 2187 16bf 081c a5be 3bed c43e baf6 d43d
00000050: ddc0 f73e 752f 0fbe 014c 623e 6a7a 793d
00000060: ad2a 873e 5d7c ab3b 01b1 2c3e 6625 273f
00000070: 7cb7 0f3f da5c db3d 05f2 d53e 6635 b73e
00000080: 995e 7b3e ff24 3ebd 78f7 423e ed59 bcbe
00000090: e094 7a3e 267e 8cbe 3044 9fbe 1fbc 7f3e
000000a0: dc7b 6d3d 7923 d6be d098 d33e c611 04bf
000000b0: c329 033e d110 18bf 9d9e e7be 85f0 cc3e
000000c0: bbd2 be3e 0475 4c3e a568 0fbd 25e2 15be
000000d0: a929 55be c7fa 61be 4601 ed3d 4d27 8bbe
000000e0: c5ed b13d bb63 333d 2a12 edbe 0b1f 633e
000000f0: 1515 a23e 5644 a8be e64a 5e3e 02d9 923c
00000100: 5b80 1c3f dbe8 433e abe7 d73e d788 813e
00000110: 76a1 993e c0fd 5dbd 9671 a6be 4c9b f9be
00000120: 0fe3 043f 9299 073f ad05 a8be 9107 e73b
00000130: 87b2 483e 3f1d 29be 116b 693c c475 51be
00000140: e93d 013f c7ff ae3e f07c 8f3e 8eff 143e
00000150: 1cd7 973e ad3c 1e3e 6b91 d03e 8476 bcbe
00000160: 5b48 85be d183 213e 1efa 58be ce8a d23d
00000170: adcb b6be 3a42 9cbd 0a20 d8be f6c3 90be
00000180: 0361 13bf 0160 4dbe 8253 d3be 292e 053f
00000190: 0833 ddbe ecd7 2f3e df02 8dbe 0ac2 ac3e
0.40200457 0.3831891 0.010926828 0.5983253 0.5692959 0.4268883 -0.13755623 -0.14118882
-0.00961704 0.08994582 0.35162982 -0.36989388 0.41068476 0.10189727 -0.10440483 -0.16998169
-0.5879994 -0.3224795 0.38462242 0.10398622 0.4838933 -0.13982947 0.22099306 0.06090776
0.26399747 0.005233331 0.16864397 0.6529144 0.5613935 0.107110694 0.4178621 0.35782927
0.24547805 -0.046422 0.19039714 -0.36787358 0.24470854 -0.27439994 -0.3110671 0.24974106
0.05797945 -0.41823938 0.41327524 -0.5158962 0.128089 -0.5940066 -0.452382 0.40027252
0.3727015 0.19966513 -0.035011906 -0.14637049 -0.20816673 -0.2206832 0.115725085 -0.27178422
0.08687929 0.043796282 -0.4630292 0.2217981 0.3165671 -0.32864636 0.21708259 0.017925743
0.61133355 0.19131796 0.42168936 0.25299713 0.30005997 -0.054197073 -0.32508534 -0.48751295
0.51908964 0.52968705 -0.3281683 0.0070504625 0.19599353 -0.16515063 0.014246718 -0.2045508
0.5048509 0.34179518 0.28025007 0.14550611 0.29656303 0.15452833 0.40735945 -0.3680917
-0.26031765 0.1577294 -0.21189162 0.10280381 -0.35702267 -0.07629819 -0.42211944 -0.28274506
-0.57569903 -0.20056154 -0.4127465 0.5202356 -0.43202996 0.17172211 -0.27541253 0.3374179

encoder.trend_learner.experts.basis_generator.grid f4 [17]
00000000: cccc ccbf 3333 b3bf 9a99 99bf 0000 80bf
00000010: cdcc 4cbf 9a99 19bf cccc ccbe cccc 4cbe
00000020: 0000 80b2 cccc 4c3e cccc cc3e 9a99 193f
00000030: cdcc 4c3f 0000 803f 9a99 993f 3333 b33f
00000040: cccc cc3f
-1.5999999 -1.4 -1.2 -1.0 -0.8 -0.6 -0.39999998 -0.19999999
-1.4901161e-08 0.19999999 0.39999998 0.6 0.8 1.0 1.2 1.4
1.5999999

encoder.detail_learner.gating_weights f4 [1, 32, 8]
00000000: 9f72 efbd 05cf 1bbf 5f93 243f 11a2 0c40
00000010: a9ab 15bf b6f5 9d3f 2f2e 3cbf ffc0 733f
00000020: 7cd2 4cbd 7de2 40bf 3a1e 993e bf9a a13f
00000030: 9824 09c0 6315 a63f 9f63 94bf 1e21 7bbf
00000040: 2628 99bf 26a6 7dbf 362a 18bf b304 febf
00000050: 98c6 ec3e fa86 b43d 16c8 193e afa8 3ebf
00000060: 9cce 07bf c584 febf 3f12 a83f a8ef 59bf
00000070: 5b3e efbe 621a 953f 0067 a3be 969f b2be
00000080: 3066 c1bf 5a98 a73f 1e5f 0abf 428d e73e
00000090: 313a 6abf 2fba b33f ff99 a2bf 58c3 f1bf
000000a0: da01 f5be d2c9 433f 4eae 12bf 174c d8be
000000b0: b975 7e3f bd15 5f3f 20e9 a73e 94e9 1ebf
000000c0: 22ad 313f d211 45bf f701 b63f 035b 293f
000000d0: 474f 643f be53 083e 88b4 4d3f 3f27 abbf
000000e0: 9ee1 9dbe 5ab1 0cbf 0483 423f 57fe 873f
000000f0: 3243 46bf c1fc 1bbf dfc2 17bf 830b 9c3e
00000100: 84b4 ddbd ce04 6d3f e99a 8cbf 4bd8 34bf
00000110: 259f 3f3f 4206 ba3f e09b eb3e 1583 06c0
00000120: 8d14 fc3f 2d8a 063f e020 b63f 7517 533f
00000130: 3088 383f 40cf ebbe 39a7 163e 2980 1e3f
00000140: 8e9f a33e 5660 d23f 71ba fabe 7ba6 06c0
00000150: 45b8 32bf 7e65 80bf 16e6 fe3e 55d8 89be
00000160: 99ac 8a3d 9844 7dbf 7dcc 353e a968 de3f
00000170: d4ee 703f f639 153f eb91 a8bf c87a 9abf
00000180: 7092 9f3e b7fc 9b3f f42a 0e3f 9ac2 7abe
00000190: 8b2a e73f 1b07 723f 607c f3bd c37d b7bf
000001a0: 5aed a8bf 54b6 9f3f 5b57 c0be 4812 b9bf
000001b0: 154a 723e 4734 14be 2af6 c7be f102 77bf
000001c0: fa7b 6f3f ecf6 fabe 6f6d 1b3f 09a8 703f
000001d0: 61ef 4bbf cb4c 02bf a751 d83e 2dbd 91bf
000001e0: 5bd7 083c 9543 b3be 44d6 f8bc 2cd2 cfbf
000001f0: 135e 8ebf 3495 483f 04b4 c5bf 518e 63be
00000200: 9cf8 c03d 4f25 8cbf b396 5e3f 965e 12bd
00000210: bc72 dcbe 5970 ca3e e2f7 a13e 57be 14bf
00000220: d172 8cbf 84d5 05be 4ff3 da3e 1b2e ae3f
00000230: 3153 01c0 e09d f5be ecb7 603f 1bf2 2d3f
00000240: 35f5 0b3f af7f a73f dcbc 7ebf d409 c7be
00000250: 7436 0b3f 4e55 263f c471 fcbe db39 54bf
00000260: e447 39bf 292c b83e 2e79 2cbf 7bce 0640
00000270: 03d1 87bd 3303 c3be 974d 81be 8467 153e
00000280: fa64 913f 29b8 57bf f104 a2bf e0cd 3c3f
00000290: f08a d83e 1811 923d 22dc 2e3f 34e9 cf3e
000002a0: 677a 8e3f 7932 4f3f d986 86bd c9a9 24be
000002b0: 2c5e 23bf a139 a93f 79aa 82be 8515 2dbf
000002c0: bd55 313f 8c1f 673f 0cb3 973f c365 593e
000002d0: 98e9 553f f339 1dbf f66a 8ebf 544f c1bf
000002e0: f69f 36bf 6eb7 c9bd d4d5 62be c350 ec3e
000002f0: 2799 a1bf f3a5 37bf f78a fa3f dbd2 6cbf
00000300: 3fea 783f cc46 d3be 2d5e 43bf d40d 043f
00000310: 012b 50be 954b 713f c3b3 903f a821 583e
00000320: cc1d dabf fe22 48be d6c1 a3bf cdd2 0ebf
00000330: 2336 debf 83cb 4abf 3c9e ae3f a82d 373e
00000340: 81f9 b9bf fefb babe 88ae 2d3f 4100 be3d
00000350: a44b 8dbf 5ef4 a7bf de6c 243f 199f e2be
00000360: bbb4 98bf d0dd f5bf 5c2b 1cbf d841 e1bf
00000370: f280 68bf bb36 e3bb cae3 d7bf b8a8 c03f
00000380: 4b74 64be 1a59 c8bf 531e 00c0 112d 663f
00000390: 8ea8 6dbd 980b 88bf f211 e73c 12b7 973f
000003a0: 0e3e 4c3f fd9a 603f 261c 113e fe9c b8bf
000003b0: 6f49 99bf af6b 7e3f 852f 2d3f efe5 2dbf
000003c0: a6f9 02bf f11f 543f ae45 073f 2203 14c0
000003d0: 66f4 8d3f 6db8 103e f1f0 8ebf d059 6bbe
000003e0: 032e 2b3f 1d58 9b3f a05b 203d 5ae7 9cbf
000003f0: b44a 52bd 6616 033f 9c49 31bf bf00 03bf
-0.11691784 -0.6086276 0.6428737 2.1973917 -0.5846506 1.234061 -0.7350797 0.95216364
-0.05000542 -0.75345594 0.29905874 1.262535 -2.1428585 1.2975277 -1.1592902 -0.9809741
-1.1965377 -0.9908165 -0.5943941 -1.9845184 0.46245265 0.08814807 0.15017733 -0.7447614
-0.53049636 -1.9884268 1.3130568 -0.8513131 -0.4672726 1.1648676 -0.3191452 -0.3488738
-1.510931 1.3093369 -0.5405139 0.4522496 -0.91495043 1.4041194 -1.2703246 -1.8887739
-0.47852975 0.7647983 -0.5729722 -0.42245552 0.9939838 0.87142545 0.32795048 -0.6207516
0.69404805 -0.76980317 1.421935 0.661545 0.8918347 0.13313195 0.80353594 -1.3371352
-0.30836195 -0.54958117 0.75981164 1.0624493 -0.7744628 -0.60932547 -0.59281725 0.30477533
-0.10825446 0.92585456 -1.0984775 -0.70642537 0.7485221 1.453316 0.4601736 -2.1017506
1.9693772 0.5255459 1.4228783 0.8245767 0.72082806 -0.46056557 0.14712228 0.61914307
0.31957668 1.6435649 -0.48970369 -2.1039112 -0.69812423 -1.0030973 0.49784917 -0.2692286
0.06771202 -0.9893279 0.17753787 1.737569 0.9411442 0.58291566 -1.3169531 -1.206872
0.3116641 1.2186497 0.5553429 -0.24488297 1.8059858 0.9454209 -0.11888957 -1.4335254
-1.3197434 1.2477517 -0.37566647 -1.4458704 0.23661073 -0.14473067 -0.39054996 -0.96488863
0.9354855 -0.4901651 0.6071386 0.940064 -0.7966214 -0.50898427 0.42249796 -1.1385857
0.008352126 -0.35012498 -0.030375607 -1.6236014 -1.1122459 0.78352666 -1.5445561 -0.22222258
0.094224185 -1.0948886 0.869487 -0.035734735 -0.43056285 0.3953884 0.31634432 -0.58102936
-1.0972539 -0.13069731 0.42763755 1.360782 -2.0207026 -0.47972012 0.8778064 0.6794755
0.5467103 1.3085841 -0.99506927 -0.38874686 0.54379964 0.64973915 -0.49305546 -0.8290078
-0.7237532 0.35971192 -0.67372406 2.1063526 -0.06631663 -0.38088378 -0.2525451 0.1459027
1.1358941 -0.8426538 -1.2657758 0.7375164 0.422935 0.071321666 0.68304646 0.40607607
1.1131104 0.8093639 -0.06568689 -0.16080393 -0.6381557 1.3220712 -0.25520685 -0.6761096
0.6927145 0.9028251 1.1851516 0.21230225 0.8355956 -0.6141655 -1.1126392 -1.5102334
-0.7133783 -0.098494396 -0.22151881 0.46155366 -1.2624863 -0.71737593 1.9573659 -0.9250924
0.9723243 -0.4126495 -0.76315576 0.515836 -0.20328905 0.94255954 1.1304859 0.21106589
-1.7040343 -0.19544598 -1.2793529 -0.55790406 -1.7360271 -0.79216784 1.3642039 0.1788851
-1.4529268 -0.3652038 0.6784444 0.09277392 -1.1038709 -1.312145 0.6422862 -0.44262007
-1.1930155 -1.9208317 -0.6100366 -1.7598219 -0.90821755 -0.0069340146 -1.6866391 1.5051489
-0.22309987 -1.5652192 -2.0018508 0.89912516 -0.058022074 -1.0628538 0.0282068 1.1852744
0.7978219 0.87736493 0.14170894 -1.442291 -1.1975535 0.9938306 0.67650634 -0.67928976
-0.51162183 0.8286124 0.528407 -2.3126912 1.109021 0.14132853 -1.116728 -0.2298348
0.66867083 1.2136265 0.03914988 -1.2258103 -0.051340774 0.5120605 -0.69252944 -0.51173013

encoder.detail_learner.experts.expert_coeffs f4 [8, 13]
00000000: 043d cc3e 844e c53d fefa 9dbd 8e88 62bd
00000010: d7b4 24be e550 823d 5fca 42be dafc febd
00000020: 7a9f 05bf 29db debe fd13 a53c b1a9 f0be
00000030: b9e1 ccbd 165b 953d a34c f53e c10c 0e3f
00000040: 5e33 af3e b3cc c83e b7a7 3d3e cfdf 793e
00000050: 74a9 f7be c819 523e a463 cebe 03bd 54be
00000060: 45f0 49bd 7645 0ebf e71b f93c b098 78be
00000070: ae41 d1be 8ae6 603e f58b 29be 91eb f0be
00000080: ff64 8e3e da45 3dbe ed5b c4bd 718c 86be
00000090: a9fa 0bbf b4b0 39bd 7491 dabe 9cb4 323e
000000a0: 4740 e93e 02ad bd3e 8346 94be 8909 fdbe
000000b0: 4f0a d53e 635d b63e e640 183f 3468 853d
000000c0: f34b 203e 2ce9 a33e 22b3 a2be e17f 813e
000000d0: 0424 643d 277b 66be 7043 29be 5c17 12bd
000000e0: bf69 9e3d dae1 0a3f aca6 b0be cbdb 263e
000000f0: 1ee9 01be f87d 073d 3f5f ae3d 61dc a13c
00000100: d4f2 66bd dced 1e3f ec36 fd3e 8838 3f3d
00000110: 5ee2 a7bd 7500 f33e 169a b5be 9945 88be
00000120: c947 90be 5cd4 2a3e 5b9b a1be 4c27 32be
00000130: 0c7c 0bbf a990 aabd 5d79 023f e5de c43e
00000140: 69f6 b23e a883 073f e579 b1be f9c8 803d
00000150: 0026 a8be 2885 593e 6829 d2bc 55f8 03bf
00000160: 7fed fe3c b26e 2f3e f871 333e 678c afbe
00000170: 8f52 e73e 1800 b3be d05e 23bc 919d f73d
00000180: 4a45 e5be 7f21 f5bd 0393 8c3e d9a4 ca3e
00000190: 3ba2 dabe c196 803e acd0 d33e ac5b c7be
0.398903 0.09634116 -0.077138886 -0.05530601 -0.1608461 0.06363086 -0.19022511 -0.12450571
-0.52196467 -0.4352658 0.020151133 -0.47004464 -0.10003991 0.07292764 0.47910032 0.5548821
0.34218878 0.39218673 0.1852101 0.24401782 -0.4837147 0.20517647 -0.40310395 -0.20775227
-0.049301405 -0.5557474 0.030408813 -0.24276996 -0.40870422 0.21962944 -0.16557296 -0.47054723
0.2781143 -0.18483678 -0.09587846 -0.26279023 -0.5467935 -0.045334533 -0.42689097 0.1745171
0.45556852 0.37046057 -0.28960046 -0.49421337 0.41609427 0.35618123 0.5947403 0.06514016
0.15653972 0.32013834 -0.31777292 0.25292876 0.05569841 -0.22507916 -0.16529632 -0.03566681
0.07735013 0.5425087 -0.3450216 0.16294782 -0.12686583 0.033079118 0.085142605 0.019758405
-0.056383923 0.62081695 0.49455965 0.04668477 -0.08197473 0.47461286 -0.3546912 -0.266156
-0.28179768 0.16682571 -0.3156384 -0.17397803 -0.54486156 -0.08328373 0.50966436 0.38451305
0.3495362 0.52935266 -0.3466331 0.062883325 -0.32841492 0.21242201 -0.02565451 -0.515508
0.031119106 0.1713207 0.17523944 -0.34286806 0.45180175 -0.3496101 -0.0099713355 0.120906
-0.44779426 -0.119692795 0.2745591 0.39578894 -0.42701897 0.25115016 0.41370142 -0.38937128

encoder.detail_learner.experts.basis_generator.grid f4 [17]
00000000: cccc ccbf 3333 b3bf 9a99 99bf 0000 80bf
00000010: cdcc 4cbf 9a99 19bf cccc ccbe cccc 4cbe
00000020: 0000 80b2 cccc 4c3e cccc cc3e 9a99 193f
00000030: cdcc 4c3f 0000 803f 9a99 993f 3333 b33f
00000040: cccc cc3f
-1.5999999 -1.4 -1.2 -1.0 -0.8 -0.6 -0.39999998 -0.19999999
-1.4901161e-08 0.19999999 0.39999998 0.6 0.8 1.0 1.2 1.4
1.5999999

decoder.trend_reconstructor.0.weight f4 [128, 32]
00000000: e57e 20be 2cd5 8a3d 30b5 4e3e e3fc 133e
00000010: aeca 79be adf2 933c 066e f2bc 2963 7f3d
00000020: f451 043e 5815 033d 150f 1d3b c20a 833a
00000030: 4ef6 c93d 32c4 913d 5ee1 50bd 7a95 5cbe
00000040: a791 023d 7469 26be cb39 663d 63af 13be
00000050: 2b92 943d 6ee6 573e 1be3 963d 00cc 013c
00000060: 6b9b 32bd 6b54 47bd a214 f13d 70e6 043e
00000070: ef4c 30be b350 0cbc 644e 973d b173 a83d
00000080: 38c6 6cbe 84cd 013e a624 1cbd fe80 f53d
00000090: 9d04 483d 7b2c 4c3e 4ef3 213e ec1b 493e
000000a0: 5908 5d3e dfca 2fbd a0d2 d3bc 7701 8b3d
000000b0: 55ea db3d d116 4d3d e272 fdbd b1af e5bd
000000c0: 4ec2 10be 0c84 cdbd 2d4a 29bd e2a5 fc3d
000000d0: 2cdb 3abd 4736 26be ba33 013e bd19 c3bd
000000e0: a91b 203b f124 1dbe 827b 173e 09a1 95bd
000000f0: be30 10bd c4e8 b43c 61a0 c03d 50eb 60be
00000100: e305 c6bd 4c04 ecbd d652 c3bc c43f feb8
00000110: 8ba8 a7bd f0ca 963d ee42 81bd 0fd0 fabd
00000120: ad3b 16be d77f ba3d b5a6 eabd d686 743d
00000130: 94ce b4bd a62e bbbd 62cf 0fbe fce4 acbd
00000140: c250 c13d ee2c 263e c95a 89bd f5f0 f43d
00000150: b96c 92bd c244 e33d f8dc c2b9 f0e3 0fbe
00000160: c2eb 84bd 3845 113b 36a6 143d 2cdd 82bd
00000170: 9af6 df3d 8ba9 43bd 117b 2b3d 8faa 69bd
00000180: 19d0 11be 2939 633e 9b7d 263e 3fe8 463e
00000190: 4222 64bd 3fb3 633e 5104 163e 4ade d0bc
000001a0: 81ff 123e fcec 28bc a919 3dbd b8e1 d9bd
000001b0: 3ac8 ac3c 73cf 123e 3e9f a5bd 53f2 9cbd
000001c0: b3fe 193d 007b c53d 59c3 45bd 94c2 0c3e
000001d0: 62a0 73bc 89fe 0a3d d9c7 efbd e9c9 bd3d
000001e0: 7173 3d3e b643 bb3d 9d4b c0bd 38d2 0c3e
000001f0: c7eb eebd 430d 51bd 0cfe 88bc 3a56 b83d
00000200: 3a56 9fbb 573b 13be 95e7 3cbc 3a86 883d
00000210: d97f 653d ee88 cdbc 665c 06be 98a0 a9bc
00000220: 590f b73d d574 bbbd 9b1e 20be 5b05 b33d
00000230: 16f4 863d b0fd 12be 22a0 0bbd f84b efbd
00000240: faef 34bd 0822 eebd cf51 2ebc 12e1 a7bb
00000250: 4b29 3abe fde5 2cbd b940 1a3d 94cc 433c
00000260: 68df a8bd 89ca 3ebe 0bf0 653d 2413 3dbe
00000270: 78b2 793c c462 2c3c 4f07 c93d e8d3 e53d
00000280: 5c00 d23d 2501 68bc 9ea0 023e 60a8 a6bb
00000290: 55a0 283e 2221 0e3c f8a1 16be 231b 04be
000002a0: 0083 8a3d ad0a a9bd c648 debd e0f8 53be
000002b0: 3fe0 33be 7854 ebbd fb15 fc3c 8e5a 153e
000002c0: c51f 6ebd af4f 2b3e ee7f 4f3b bd49 0ebe
000002d0: dad3 c7bd 3009 dc3d aa94 093e e65e 26be
000002e0: fbbe ac3c 98e8 babd f0fa a33d fa56 82bd
000002f0: a853 ae3c b521 023e a054 093e 78d4 b7bd
00000300: ccaa 38be ce34 a3bd 7377 133e 2d68 5e3e
00000310: adf9 603d dd91 d53d 0ef9 b8bd 69b4 823e
00000320: 1172 90bd d7e6 bebc f89d c4bd fd36 053e
00000330: 415c 92bd 9c5b d43d 679f 75bd 94b3 3ebe
00000340: d976 df3d 627e d1bd 2c02 c7bd af23 2c3e
00000350: 4f58 07be cd32 09be 5d65 f73d c1ae 51bc
00000360: dae7 0f3d ade0 93bc 2946 8f3d 1ef2 1d3d
00000370: bbb5 b53d 9b08 28be e250 12be e705 833d
00000380: c0d2 5d3d 7d0c 2cbe 29c3 f03d 5b8a 9d3d
00000390: bccf 0bbe c7c9 553d de25 d6bd 1cb2 f33d
000003a0: d06e 8e3d f222 19be abc1 d5bc 299f 5c3d
000003b0: e38f 0f3e 3e96 d63b 5470 053e 525c 1dbe
000003c0: 1254 f6bd 3e85 2d3e 7226 f9ba 4c97 83bd
000003d0: 494b fcbd f238 2abe 9904 13be 218d 0dbe
000003e0: 8171 fa3d cbfb b13c 4a35 2ebd 2ab7 113e
000003f0: dc22 69bd fd62 1dbd 7215 11bd 9bd7 34bd
-0.15673406 0.067789406 0.20186305 0.14451937 -0.24393722 0.018060053 -0.029593479 0.062350426
0.12921888 0.032002777 0.0023965288 0.0009997713 0.09861432 0.071174994 -0.050996177 -0.21541396
0.031877186 -0.16251165 0.05620746 -0.14422373 0.07254442 0.21083996 0.07367536 0.007922173
-0.04360525 -0.04866449 0.117715135 0.1297853 -0.17216848 -0.008564162 0.07387999 0.082251914
-0.2312249 0.12676054 -0.03812089 0.11987494 0.048832525 0.19938843 0.1581547 0.19639558
0.21585216 -0.042918082 -0.02585727 0.06787389 0.10738055 0.050070588 -0.12375428 -0.11215151
-0.14136621 -0.100349516 -0.041330505 0.12336327 -0.045619175 -0.16231643 0.12617388 -0.095263936
0.002443055 -0.15346123 0.14793208 -0.07306106 -0.035202734 0.022083648 0.0940559 -0.21964765
-0.096690916 -0.11524257 -0.02384321 -0.00012123541 -0.08186444 0.07362926 -0.06311594 -0.12246715
-0.14671202 0.09106415 -0.11457578 0.059698902 -0.08828464 -0.09139757 -0.14043954 -0.08442113
0.094392315 0.16228077 -0.06706769 0.119600214 -0.071496435 0.11097099 -0.00037167198 -0.14051795
-0.0649028 0.0022166502 0.036291324 -0.063898414 0.109357074 -0.04776911 0.041865412 -0.057047423
-0.14239539 0.22189774 0.16258852 0.19424532 -0.055696733 0.22236346 0.14650084 -0.02549662
0.1435528 -0.010310408 -0.04616705 -0.106387556 0.02109157 0.14336948 -0.08087014 -0.07663407
0.037596416 0.09642601 -0.048282 0.137461 -0.014869781 0.03393415 -0.1170804 0.09267027
0.18501069 0.09143774 -0.09389422 0.13752067 -0.11666065 -0.051038038 -0.016722701 0.090008214
-0.004862574 -0.14378105 -0.011529823 0.06666227 0.05603013 -0.025089707 -0.13121185 -0.02070646
0.08938474 -0.09153143 -0.15636675 0.08741256 0.065895244 -0.14354587 -0.03408826 -0.11684412
-0.044174172 -0.11627585 -0.010639622 -0.005123266 -0.18179815 -0.04221152 0.03765938 0.011950631
-0.08245736 -0.18631949 0.056137126 -0.18464333 0.015240304 0.010521594 0.09815847 0.112220585
0.10253975 -0.014160429 0.12756583 -0.00508599 0.16467412 0.008674892 -0.14710224 -0.12900977
0.067632675 -0.08253989 -0.10853724 -0.20700407 -0.17566012 -0.114907205 0.0307722 0.14585325
-0.058135767 0.16729616 0.0031661945 -0.13895316 -0.09757204 0.1074394 0.13435617 -0.16247138
0.02108716 -0.09126395 0.08006847 -0.06364246 0.021280125 0.1270817 0.13411188 -0.08976072
-0.18033904 -0.07969056 0.14401035 0.21719427 0.05492561 0.10428212 -0.090318784 0.25528267
-0.070530064 -0.023303432 -0.09600443 0.13009258 -0.07146502 0.103690356 -0.05996647 -0.18623191
0.1091134 -0.10229184 -0.09717211 0.16810487 -0.13217281 -0.13398285 0.120798804 -0.012798012
0.03513322 -0.01805147 0.06995804 0.03856098 0.08872553 -0.16409533 -0.14288667 0.0639761
0.054156065 -0.16801639 0.11755974 0.07692405 -0.13653463 0.052194383 -0.10456441 0.11899206
0.069547296 -0.14954737 -0.026093325 0.053862724 0.14019732 0.006548672 0.13031131 -0.15367249
-0.12027754 0.16945359 -0.001900865 -0.06425342 -0.12319047 -0.16623285 -0.14357223 -0.13823368
0.122286804 0.02172651 -0.04253129 0.14230028 -0.05691801 -0.03842448 -0.035420842 -0.04415093

decoder.trend_reconstructor.0.bias f4 [128]
00000000: ecf8 8d3d c711 533e e5a3 34be c693 d53d
00000010: a63c 2b3e 5bac e53d 0e24 013e 604b 2bbe
00000020: f108 4f3e 1942 0fbe 4b91 03be 7c51 353d
00000030: 2e38 143e f1c5 1a3d f2df 1c3e 7733 923d
00000040: 52a1 d53d d87a 783c 15ce 1fbe f989 0c3e
00000050: c257 5cbc 1053 9dbd c7b2 433d 7e41 833d
00000060: c00b fd3c eded 7cbc 39df 52bd 058c 673c
00000070: e2e8 4cbd a3ea a0bd 6b38 643e 3654 f73d
00000080: a2df 30be 5d31 b33d 5f19 213e f0f5 f7bd
00000090: 37c4 9bbd 3021 02be 8c59 3f3e 896c a7bd
000000a0: 9ef5 613e ec75 d93c d205 d5bd 4fea 04be
000000b0: 510c 05be 2b83 5a3e 022f 3c3d 3178 ff3c
000000c0: cf6e 453e 94e4 383e 5f65 00bd 3bc6 2f3e
000000d0: 1f66 613e 25d0 423e 8ffc 33be 41db 763e
000000e0: d228 513e 39f5 0e3e 4798 613e d3bc 0fbe
000000f0: 63f1 7d3d 21b1 8d3b 6272 03be 62fc 393e
00000100: 9d92 363a 6462 8f3d e3af b2bd 8c3f 013e
00000110: 2a4e f1bd ce0d 21be 1bab 123e 699a f9bd
00000120: f410 1fbe 42d3 8b3d 7e88 c3bd 8581 9e3c
00000130: f7b7 0fbe 9701 8b3d e5b5 c4bd fd72 843d
00000140: 73fc fb3d 57d8 cd3d c5a1 28be 8fad 9d3d
00000150: 4a12 bd3b f26e b1bd c4ce d8bd 7600 8dbd
00000160: 05df 4d3e 66a4 e33d 76b0 a23d 2ce3 58bd
00000170: 0fe9 193e ac28 fcbd ad01 2b3e b767 073e
00000180: de6c ae3d a0d0 4c3e ddc2 013e 3633 2f3c
00000190: f3ee 2cbe 6d46 1bbe 7087 033e 41d9 5bbd
000001a0: 99cf ad3d 4bca 933d 6671 c33c 68a3 263d
000001b0: 8b7a debc 8df4 89bd ff67 b93d 1318 2f3e
000001c0: bcef a9bd 683a cbbd 69ef 0fbe 3ec9 d3bb
000001d0: 04b0 293e ce86 b43d b14c 3e3e 4fb3 2fbe
000001e0: d444 cbbd 19cc c6bd afc1 273e 75f4 413e
000001f0: f176 fa3d 2ff3 f3bd e50e 6e3e 160f bb3d
0.06932244 0.2061225 -0.17640646 0.10428576 0.16722354 0.11214515 0.1261141 -0.16727972
0.20218255 -0.13990058 -0.12848394 0.044267163 0.14474556 0.037786428 0.15319803 0.071387224
0.1043116 0.015166007 -0.15605958 0.13724507 -0.0134486575 -0.076818585 0.047777917 0.06408976
0.030889392 -0.015437585 -0.051482413 0.014132504 -0.05002678 -0.078572534 0.22287147 0.12076609
-0.17272809 0.0874965 0.15732335 -0.12107456 -0.076057844 -0.12707973 0.18686503 -0.08174998
0.22066352 0.026545487 -0.10401501 -0.12980007 -0.1299298 0.21339099 0.045943268 0.031185241
0.19280551 0.18055946 -0.031346675 0.17165463 0.22011612 0.19024713 -0.17576812 0.24107076
0.20425728 0.13960733 0.22030745 -0.14036874 0.061997782 0.004324094 -0.12836602 0.18162683
0.0006964596 0.070011884 -0.08724954 0.12621897 -0.11782487 -0.15727922 0.14323084 -0.121876545
-0.15533811 0.068274036 -0.09547518 0.01934887 -0.14035021 0.067874126 -0.09605006 0.06467245
0.1230401 0.10051029 -0.1646796 0.07699119 0.0057700025 -0.08663739 -0.105863124 -0.068848535
0.20104606 0.11115341 0.079438135 -0.052951023 0.15030311 -0.12312445 0.16699858 0.13223158
0.085168585 0.20001459 0.1267199 0.010693362 -0.16888027 -0.15163584 0.12844634 -0.053673986
0.08486862 0.07216319 0.023857784 0.04068318 -0.027158042 -0.067360975 0.09053039 0.17099027
-0.08297679 -0.099232495 -0.14056171 -0.006463199 0.16571051 0.088147745 0.18583943 -0.17158245
-0.09925237 -0.09706897 0.16382478 0.18940909 0.122297175 -0.11911618 0.2324787 0.09133737

decoder.trend_reconstructor.2.weight f4 [1, 128]
00000000: 1c82 323e 5e5d 923d fb06 94bc 63e0 c83d
00000010: 7799 9b3c e3c6 58bd 0f87 c03d 5597 243d
00000020: 65ef c73d ef2f 8fbd c28c 713d f81b 07bd
00000030: bff5 fbbc 301d 143e 93a3 f23b 436e 993c
00000040: 3f98 74bd 8c65 9fbd ef4e af3d 4570 8e3d
00000050: e9bb 11be f250 4b3d 1da1 eabd 192c 2c3e
00000060: d7ca 93bd 6286 8e3d e1ca 2abd cb75 08be
00000070: d172 a33d 8e89 a4bd fd2c 943d 623f cc3d
00000080: 7ff1 4f3d d0da f93d 7ddf f23d e91c 8e3c
00000090: 9f4a e33c 55d9 ab3d 5c90 ab3d c805 9d3b
000000a0: c374 913d 4fe0 2dbe 310b 913d ee9a f3ba
000000b0: 4704 963d 90c9 363d 0603 7ebd 2c6a 98bd
000000c0: b9cb b33d 7f3d f93c ea2d 94bd 11e3 ea3d
000000d0: 7ea0 a73d 360c 733d 049e 3b3d fd04 603d
000000e0: f4b4 e13d 2f60 003e 58e6 8c3d 72bf 83bc
000000f0: 0c3d b13d 5c1d 0abe 4ef1 2ebd 1590 d83d
00000100: 3fa4 ecbd 3467 54bd 7c47 a83d 6242 8dbd
00000110: 44f8 91bd 1303 94bd ab69 ab3d ace6 463c
00000120: 47a4 8f3d 3233 773d 4007 893d 095b 04bd
00000130: 8ccd 4abb d61e 86bd 40d4 9c3d 4d25 a3bd
00000140: 10b2 be3d dbe0 8abb 3361 08bd 83b8 223e
00000150: 4f2e e3bd b047 273e 2f47 87bd 41be 053d
00000160: fc7f e23d 7e47 46bd 268d 97bd 940e b63c
00000170: 31ed df3d 4981 b43d 1e73 e73d 9f88 983d
00000180: 640c df3d 261b 023e 0174 c33d 04a9 cdbd
00000190: c7e0 c9bc 7b7e 833c 1cf9 c1ba bd72 2fbd
000001a0: 84ef b43d 2810 15bd 7870 02be 6a28 113e
000001b0: aa1c cc3d efaa 94bd e907 cdbd 51fd 8e3d
000001c0: 810f 4ebd 991d a33d 2dd2 503d 7bea 253e
000001d0: a0c6 e33d 982d b3bd 009b 573d f6fe b8bc
000001e0: d34f 0bbd d06b 173c 4160 e43d de6b 0e3e
000001f0: 7d44 4b3d 07fa 8cbd 425f 933d 3d94 abbd
0.17432445 0.07146715 -0.018069735 0.09808423 0.018994076 -0.05292405 0.094007604 0.040183384
0.09762458 -0.069915645 0.058972128 -0.032985657 -0.03075683 0.14464259 0.0074047535 0.018729335
-0.059715506 -0.077830404 0.08559977 0.069550075 -0.14231838 0.049637742 -0.11456511 0.16813697
-0.07216423 0.06959225 -0.041697387 -0.13326184 0.07980884 -0.08034049 0.07235143 0.09973027
0.050767418 0.12199938 0.11859033 0.01734777 0.027745543 0.08391062 0.08377144 0.004791949
0.07102349 -0.16980098 0.07082213 -0.0018585601 0.073250346 0.04462582 -0.062014602 -0.07442126
0.087790914 0.030424831 -0.0723532 0.11469091 0.08184908 0.059337817 0.045804992 0.054692257
0.11020842 0.12536691 0.06879872 -0.0160825 0.08654222 -0.13487762 -0.042710595 0.105743565
-0.11554765 -0.051856235 0.082167596 -0.06897427 -0.07127431 -0.07227149 0.08369764 0.012139957
0.07013755 0.060351558 0.06690836 -0.03231338 -0.003094527 -0.0654885 0.07657671 -0.07966099
0.093113065 -0.0042382306 -0.03329582 0.15890698 -0.11092817 0.1633594 -0.06605374 0.032652143
0.11059567 -0.048408024 -0.07399969 0.022223748 0.109339125 0.08813722 0.11301254 0.074479334
0.10891035 0.12705669 0.0954361 -0.10042003 -0.024643315 0.016051522 -0.0014798972 -0.042834032
0.088347465 -0.03639236 -0.12738216 0.14175573 0.09966405 -0.072591655 -0.10011274 0.0698191
-0.050307754 0.0796463 0.05098169 0.16202728 0.11121869 -0.08748931 0.052638054 -0.022582512
-0.034011673 0.009242013 0.111511715 0.13908336 0.049625862 -0.068836264 0.07195903 -0.083778836

decoder.detail_reconstructor.0.weight f4 [128, 32]
00000000: dbe1 a6bd b571 a23d 8fe2 953d 760a 05be
00000010: 56c8 793d 266d 713d 819c 00bd 4695 b63c
00000020: 2bbc 54bd de9e 20be 5232 1c3d 3848 4bbc
00000030: 4dd6 aabd 321b 4d3a a76c af3d 72eb 8c3d
00000040: aa58 3fbe 2e73 28be 1ca6 a5bd b132 023e
00000050: 9161 9abd 1ce0 80bd 169b 5abe 005c 34be
00000060: b343 ac3c e2f4 043e 01d4 79bd ed48 293e
00000070: 912c 7aba ffaf 0e3e 53f4 563d 1a16 e43c
00000080: 6627 3b3d 5592 313e ad4d 443d 91cf adbc
00000090: 1a3b e03d f12c ce3d 8c5e e63d 55a3 233d
000000a0: 8057 593e 57a2 263d 43e7 ba3d bd2f 8ebc
000000b0: 1281 213d 7278 9dbd 780a 2a3d e803 523c
000000c0: 7531 653e 52db ba3d 1eb2 553e cea9 a43d
000000d0: b638 8f3d ba33 903d 6b81 89bc 657d a83d
000000e0: 78e8 40bd cf55 ce3b 9db9 9abd a182 913d
000000f0: 31d4 f83d 6857 283e 1ece 9abd 4438 febd
00000100: ddeb 0dbe 0697 283e 109a 03be 2f06 83bd
00000110: 8b91 df3d 8d06 113d 256a 5d3d a4d7 a93d
00000120: 0957 153e 022b debd 3098 d6bb 1f42 bebd
00000130: 2aa3 203d 6daf e8bc a585 e9bd fa46 acbd
00000140: 5631 efbd f1c9 683d c7f7 303e e286 67bd
00000150: 6973 f0bd 9a61 fd3d 5167 2a3d b42f 0e3e
00000160: 6aa3 2bbe 7ff8 28be 208e 083e a4d6 d4bd
00000170: 8b81 2d3e d061 50bd c367 5cbc e1db 233e
00000180: 4c3a 0b3d 177c 63be 8ec8 a9bc 8bd5 ebbd
00000190: 44f0 a1bc 002a 9a3d 1bfc edbd e4e6 6fbe
000001a0: 5071 f7bc 0ccc 1ebe 200e f5bd 9d55 bbbd
000001b0: 8d42 b6bd 9d20 58be 71a3 9fbd 3362 51be
000001c0: 03eb a23d cd7e 553e 95f9 933c e4c9 45bd
000001d0: 6434 13be d95e 5cbe 0529 08bd 9119 673e
000001e0: c2c7 173d a0a2 e8bc 936e cf3c 43a0 42bd
000001f0: fb27 0cbc fa73 4cbd 764b 1fbe be4a 3ebe
00000200: 9b5b 503a f660 54be 4913 7f3e 9250 82be
00000210: f825 d1bd 867c f3bd 41b1 87bd 8782 9bbb
00000220: d64c fcbd 2e2b 4fbc f8de 7cbc d4ca 87be
00000230: 2183 0bbb 6f6b 983c 5b0c be3c 34b2 1c3d
00000240: efae a3bd 1130 09bc 8e8e 9e3c b23d 12be
00000250: 57fb 7f3e 4244 45be f106 75be 6571 66bc
00000260: 5b6f ce3b 9f5e 153e 98e6 f63d d53d d5bd
00000270: f12f 86bd 8f3d 8dbd a086 8dbd 3a5a 52be
00000280: 8642 c53d ef8a 533e 63f7 223e 326b c23d
00000290: 4994 273e fc97 0d3c b380 dc3d 212d 273e
000002a0: db69 f4bd c2ae 173e ce0b 213d c483 2ebd
000002b0: 29d1 df3d 3cda 0d3e 977d e6bc d8fe f7bc
000002c0: 0cad 2a3d 46be e23c 6944 d43d 8a4a eebd
000002d0: 89bf 1e3e 53f2 0fbe dd66 453d dd3d e8bd
000002e0: 2f4f 393e adff 3b3c ba9a 923d b0ed 2bbe
000002f0: 27e1 10bd c68e 5cbd a8c8 f13d b47b 603d
00000300: f69f 7abe 9664 12be 15ab cbbc cc6c 2ebe
00000310: 7668 f0bd ec06 0e3d 7945 aabd 7049 47be
00000320: 62a0 aebd 5910 39bc 5317 d0bc 3f13 79be
00000330: 27e2 cdbc 70d6 66bd d6de 0cbe 704b 29be
00000340: 2bb0 f8bd e184 1e3d 8625 eebc 6522 4c3d
00000350: 5f80 583e 7fd2 d9bd c26d 5fbc 1b44 6f3e
00000360: e40d bdbd a703 c53d 045e 7cbd c325 1d3e
00000370: 7678 973d a7b9 4dbd 6868 2b3d d54b f1bd
00000380: 4e66 7a3d 5052 44bd 8075 ed3c 32a5 06be
00000390: c6eb f43c a907 4a3e 6c22 c9bd ca47 afbd
000003a0: fb21 fdbd 28bc 65bc 1218 efbd ed37 153e
000003b0: 03b9 cabc 5a7f 7bba 7b7d 06be fd0d 46bc
000003c0: be32 0b3e bd45 713c 3c99 023e d3cd 053e
000003d0: 8432 c03d 4f18 42bd c82f 06be eb16 203e
000003e0: b2ab 2a3e fce6 d3bd 6d90 2e3e 5ee6 b93d
000003f0: 233a f33c da1c d8bd 628b 7c3d 50ba 483e
-0.08148547 0.07931844 0.07318603 -0.12992272 0.06098207 0.058941983 -0.031399254 0.022287976
-0.051937263 -0.15685603 0.038133927 -0.012407355 -0.08341656 0.0007824182 0.08565646 0.06880845
-0.18686166 -0.16450188 -0.080883235 0.1271465 -0.075381406 -0.062927455 -0.21348223 -0.1761322
0.021028375 0.1298404 -0.0609932 0.16531725 -0.0009543384 0.13934325 0.0524791 0.02784257
0.04569187 0.17340977 0.04792564 -0.02121714 0.10948773 0.10067166 0.11248502 0.039950687
0.21224785 0.040682163 0.09126141 -0.017356748 0.03942973 -0.07688989 0.04151389 0.012818314
0.22382148 0.09123863 0.20868728 0.080402 0.06993239 0.07041116 -0.016785344 0.08227042
-0.0470967 0.0062968503 -0.07554934 0.071049936 0.12149847 0.16439593 -0.07558845 -0.124130756
-0.13859506 0.16463861 -0.12851739 -0.06397664 0.10916432 0.035406638 0.054056305 0.08293083
0.14583983 -0.10848047 -0.006548904 -0.09289955 0.039218105 -0.028403962 -0.11402444 -0.08411975
-0.11679332 0.05683321 0.1728202 -0.05652512 -0.11740763 0.12372132 0.041602436 0.13885385
-0.16761556 -0.16501044 0.13335466 -0.10392502 0.16943948 -0.05087453 -0.013452473 0.16001846
0.033991143 -0.22215305 -0.020725515 -0.115153395 -0.019767888 0.07527542 -0.11620351 -0.23427922
-0.030205399 -0.15507525 -0.11965585 -0.09147189 -0.08899412 -0.21106191 -0.07794846 -0.20447616
0.07954981 0.20849152 0.018063346 -0.04828824 -0.14375454 -0.21520557 -0.033242244 0.22568347
0.03705574 -0.028397858 0.02532128 -0.04751612 -0.008554454 -0.04991529 -0.1555613 -0.185832
0.00079482206 -0.20740113 0.249097 -0.25452095 -0.1021232 -0.11888985 -0.066256054 -0.0047457847
-0.12319343 -0.012644572 -0.015434019 -0.26521933 -0.0021287876 0.018605916 0.02319925 0.038255885
-0.0799235 -0.008373276 0.019355085 -0.14281347 0.24998222 -0.1926432 -0.23928429 -0.014065121
0.0062998957 0.14586876 0.12055701 -0.10412184 -0.06552113 -0.06896507 -0.06910443 -0.20542231
0.09631829 0.20658468 0.15914683 0.09493102 0.1636516 0.008642193 0.10766735 0.16325809
-0.11934253 0.14812759 0.0393179 -0.04260613 0.10928566 0.13852781 -0.028136058 -0.030272886
0.041668937 0.02767862 0.10364611 -0.11635311 0.15502752 -0.14057283 0.0481938 -0.113399245
0.18096612 0.011474532 0.07158418 -0.1678989 -0.035370972 -0.053847097 0.1180585 0.054805472
-0.24475083 -0.14296183 -0.024861852 -0.1703369 -0.11738674 0.03467457 -0.08314032 -0.19461608
-0.08526684 -0.0112954015 -0.025401747 -0.24323748 -0.025132252 -0.056356847 -0.1375688 -0.16532683
-0.121429764 0.038700942 -0.029070627 0.04983749 0.2114272 -0.10635852 -0.013637008 0.23365824
-0.09231165 0.09619837 -0.061613098 0.15346436 0.07396023 -0.05022588 0.041847616 -0.11782042
0.06113272 -0.04793006 0.028986692 -0.13148955 0.029897582 0.19729485 -0.098210186 -0.085586146
-0.12359997 -0.014021911 -0.11674513 0.14572115 -0.024746424 -0.0009593867 -0.13133805 -0.012088296
0.13593575 0.0147261 0.12753767 0.13066797 0.09384635 -0.047386464 -0.13104165 0.15633743
0.16667059 -0.10346791 0.17047282 0.09077142 0.029690808 -0.10552378 0.061656363 0.19602323

decoder.detail_reconstructor.0.bias f4 [128]
00000000: b52a 993d eb96 453e 7ae6 debd 20c2 5cbb
00000010: 2749 263d 1d01 1d3e c994 843b 04bc e1bc
00000020: 2c9e 23be fcca 543d 31cd 793d 33e1 e83c
00000030: 22b1 333d 26e7 8e3d 996a b03c 4a9f 2f3d
00000040: 4699 03be 32ca dabd 6eae 043e 893e 38bd
00000050: e9d5 e33d 83cc 103e 879e 2cbe 0497 7e3d
00000060: 05db 8bbd 94c8 eabc 5acf ca3d c2c6 e2bd
00000070: 8445 c93c 84f7 3e3e 0e19 563d 5dfd ebbd
00000080: 499a 28be 2eec 913d 9953 093d 983c 153d
00000090: 97f8 a43d b675 7a3d 3b98 463d c7a5 ce3d
000000a0: df78 c03d fa63 0c3e e4cc 29be 0e12 3f3d
000000b0: 3c89 21be 9eca 553d 9fa3 253d ed49 09be
000000c0: 8483 a2bd d5e9 14be 3fb1 e03c 57ab 393e
000000d0: 65e3 423d e63d 0cbe 8506 64be 7a31 aa3c
000000e0: 897d 673d 5439 e6bd a704 2dbd 973a 433e
000000f0: 1106 003d ea34 133e e2ba 263e d072 14be
00000100: 26c7 b43d 78fd 4b3d 0b17 883d 82ec 1bbe
00000110: 8c4e 95bd a0e0 3fbd fa50 8e3d e495 bebd
00000120: 1717 3dbe 0abc 013e feae 0b3e 5c76 d9bd
00000130: d820 95bc f608 303c 71ef 063d 48a7 3c3e
00000140: 895a af3d 733d a9bc 9e6f ab3d 7c82 11be
00000150: 8512 213d 5820 57bd 9036 37bd 3d18 aa3d
00000160: 6504 dfbd 9877 a13d 82ad 26be 74b0 3e3d
00000170: c082 1f3e d123 1abe 61fe a73d 8378 8e3d
00000180: 7c9d 203e 5ac5 b13d 0f3a 923d 863a 6e3d
00000190: 99a7 eb3d d061 b7bb 7e9a d0bd 55c5 20bd
000001a0: baff 33be 8dcc 30be 3524 87bd 4168 27be
000001b0: 6581 e03d bacb e33d c451 f73d 637f 02be
000001c0: f42b 933d 06e3 85bd d4c2 f63d 1ae9 1c3e
000001d0: ad15 78bd 1cb8 c23c 01da c1bd ccfe b3bd
000001e0: 5e05 343d 9586 e1bd 713e 213e d6f8 0a3e
000001f0: 5a1b 363e 69df 053e baa2 dd3c 84b5 4dbd
0.07478849 0.19295852 -0.10883804 -0.0033685043 0.040597107 0.15332456 0.004046057 -0.027555473
-0.15978307 0.051951393 0.0609867 0.028427696 0.0438701 0.06977682 0.021535205 0.04287652
-0.12851438 -0.10683097 0.12957165 -0.044981513 0.111247845 0.14140515 -0.16857348 0.06215574
-0.06828884 -0.028660096 0.099028304 -0.11073066 0.02456928 0.18649107 0.052269988 -0.115229346
-0.16465105 0.07125126 0.03352699 0.03643474 0.08055227 0.061147414 0.048485022 0.10090213
0.09398054 0.13710013 -0.16582066 0.046648078 -0.15775007 0.052195184 0.040439244 -0.13407107
-0.07935241 -0.14542325 0.027428268 0.18131767 0.04758014 -0.13695487 -0.22268112 0.020775545
0.056516204 -0.11241403 -0.042240765 0.19065319 0.031255785 0.14375654 0.16282228 -0.14496922
0.08827047 0.049802274 0.0664502 -0.1522694 -0.07290372 -0.04684508 0.06949039 -0.09305933
-0.1846584 0.12669387 0.13640973 -0.106182784 -0.018204138 0.010744324 0.032943193 0.18423188
0.0856219 -0.020659184 0.08370899 -0.14209932 0.039324302 -0.05252108 -0.04472977 0.08305404
-0.1088951 0.07884139 -0.16277125 0.046554998 0.15577221 -0.15052725 0.08202816 0.069565795
0.15685076 0.0868022 0.0713998 0.05816128 0.11506576 -0.005596377 -0.10185717 -0.03925069
-0.1757802 -0.1726553 -0.06598703 -0.16348363 0.1096218 0.11122842 0.120761424 -0.12743907
0.07186118 -0.06537442 0.12048879 0.15323296 -0.060567547 0.02376943 -0.09465409 -0.08788833
0.04395043 -0.110119976 0.15746476 0.13571486 0.17783871 0.13073505 0.027055133 -0.050221935

decoder.detail_reconstructor.2.weight f4 [1, 128]
00000000: 8385 853d 83b7 d2bd 2c28 133c 4830 ce3d
00000010: d84e 013e 9424 f4bd 262f f23d 4aa8 37bb
00000020: ebcc 813d f76f b43d b67d 803d f540 2d3d
00000030: 65a9 a7bd e2b3 bb3c 15d3 b53d 9c0d 7c3d
00000040: 6ead d63d 1382 b93d 3505 d9bd d42c 9f3d
00000050: 14c0 c43d 0389 aabd 3584 4a3d b85d fb3d
00000060: 3f1e 00be f802 c63d bfe0 5f3d bc42 b5bc
00000070: c4de 1fbe 8e93 3bbd 23f9 073e 64e4 0dbe
00000080: 491d 363c 0be9 d73c af4e d4bd db09 e73d
00000090: a113 763d db82 a33b 329a 48bd 9ca4 fdbd
000000a0: c328 b1bb 1c74 dd3d 3489 973d 9acc b3bd
000000b0: decd 1e3c b94d b43d 0b3c dfbd 6119 65bc
000000c0: e229 633c e106 f7bc 7a09 d63d f126 89bd
000000d0: 14b2 0f3e 9bdb 3abd 2518 513e 4c04 06be
000000e0: 8949 c43d 50c7 a63d a33b 0d3e 5499 ddbd
000000f0: 372c ea3d 41ff 8f3d 261c 22bd 6e59 b4bd
00000100: 76aa 8bbd f033 0b3e 9e53 b43d 7508 85bd
00000110: 5e8f 833d 6d72 6b3d 0252 e13d 6ca7 65bc
00000120: 0e3c 40be 783c f5bd b993 b73d 06e1 3e3d
00000130: e391 863d 8311 dabd 2332 2b3e 16b8 c3bd
00000140: bffa b0bd 861b 093e edc5 493d b39c f23c
00000150: 3f21 d13d 2ff5 bebd a72b e4bd 05ee 90bd
00000160: 99e6 533d a8f6 66bd 3497 363c 8486 c7bd
00000170: 80c7 f7bd 426a 36bc 7533 a43d ef9b 0abd
00000180: 8fdc 97bc ed5c cdbd e103 fb3d 72a0 fdbd
00000190: 2b9d 0a3e 2f21 1ebe 3036 20bd 8981 da3c
000001a0: 6c8d 353c fd85 52bd 94ea 23be c7c7 703d
000001b0: 8e8c 793d b74c 5d3d 881d a6bd c1d5 80bd
000001c0: f517 0dbe 3f5a 393d ffbc e8bd 1463 88bd
000001d0: d540 9dbd 9403 273e 7c13 a1bd ee09 10be
000001e0: 4484 82bd 3d7e dabd 5842 93bd 178c 843d
000001f0: 0b2f f1bd cd0e 35bd 7bd1 673c cc4e 02be
0.06519606 -0.10288908 0.008981746 0.10067803 0.12627733 -0.11921039 0.11825399 -0.0028023892
0.06337913 0.08810418 0.062739775 0.042298276 -0.08186606 0.022912923 0.08878151 0.061536416
0.10482298 0.09058013 -0.10596696 0.07772222 0.096069485 -0.08326914 0.04944249 0.12273735
-0.12511538 0.09668535 0.054657694 -0.022126548 -0.15612322 -0.045795016 0.13278632 -0.13856655
0.011115381 0.02635624 -0.1036657 0.11281177 0.060077313 0.0049899644 -0.048975177 -0.12384912
-0.0054064705 0.10813162 0.07399216 -0.08779259 0.009692637 0.08803887 -0.10900124 -0.013983102
0.013864966 -0.030154647 0.10451026 -0.066968806 0.14032775 -0.04561959 0.20419367 -0.13087577
0.09584338 0.081434846 0.13792281 -0.10820261 0.114342146 0.07031108 -0.039577626 -0.0880612
-0.06819622 0.13594031 0.08805011 -0.06495754 0.064238295 0.05748217 0.1100197 -0.014016967
-0.18772909 -0.11974424 0.08963723 0.046601318 0.065707944 -0.10647871 0.16718344 -0.09556596
-0.08641576 0.13389406 0.049261022 0.029615736 0.10211419 -0.09324109 -0.111411385 -0.070766486
0.051733587 -0.056387573 0.011144448 -0.09742454 -0.120985985 -0.011133732 0.08017627 -0.033840116
-0.018537788 -0.1002749 0.12256599 -0.12384118 0.13536517 -0.15442346 -0.039114177 0.026673095
0.011081081 -0.051397312 -0.16007453 0.058784273 0.06092506 0.05402824 -0.081111014 -0.0629077
-0.1377867 0.04525208 -0.11364173 -0.06659523 -0.07678381 0.16309959 -0.078650445 -0.14066288
-0.06372884 -0.10668609 -0.071903884 0.064720325 -0.11776551 -0.04420357 0.014149065 -0.12725371
